App/app/src/main/assets/dpn107_model_0.1204.tflite (tflite, 134384 bytes, 10 tensors)

arith.constant f4 [512, 32]
00000000: 0678 4738 844c 5cb8 e83c e237 982e 8238
00000010: a175 2338 52a0 4937 5f13 1639 5d83 27b9
00000020: 3343 e5b8 d263 05b9 9611 e2b8 071e ea38
00000030: dc5b aab8 b520 0739 66bf 71b5 cda0 34b9
00000040: ef9a e538 e736 b938 5d40 e0b8 70cc abb8
00000050: f9ab 9db8 5c00 0a39 c874 1f39 7ea1 81b7
00000060: 1242 df37 42ee 15b9 9f32 27b9 bab6 09b9
00000070: 5f8f 3c38 997d 4638 5f71 bdb8 d2e8 49b8
00000080: 7e5a 9fb8 f6a4 a7b8 d41c a6b8 8e02 c738
00000090: e0ff 01b9 bb4b 8a38 1c4c d3b8 57c7 7837
000000a0: 1b48 0638 4e92 0b39 12e0 ef38 128a 16b8
000000b0: c8c9 8fb8 78c7 1838 fc48 c637 66ab e5b6
000000c0: 5159 9c38 ace6 82b7 54a3 a0b8 bb1e edb7
000000d0: 6f39 15b9 0b33 83b7 d5d6 ef37 9ff1 1eb9
000000e0: 04eb f6b8 1e83 bfb8 051b 6038 5da9 0cb9
000000f0: 1b74 be38 916f 07b8 bbf8 1439 2781 be35
00000100: e778 22b7 10b8 36b8 e390 96b8 d929 0c39
00000110: b37b 08b9 e6c8 2839 c4ed 52b8 41b4 1c39
00000120: 73d5 aab8 7812 7538 48c1 0738 c213 2939
00000130: dc85 f138 9acc 8638 ee64 25b9 abe7 6bb8
00000140: 5ba6 2738 ac8a 2638 592d 31b9 ca5a 95b8
00000150: bc75 20b9 825e 02b9 d8b6 0339 4684 1e39
00000160: eca4 b7b8 6bfc 56b8 aca3 e1b8 3810 74b8
00000170: e34b 90b8 dcc7 5836 40b2 1cb9 83a5 a338
00000180: a34d 9a37 aa2d e138 5737 29b9 1614 4e38
00000190: ad48 adb8 a255 e6b5 f310 6337 bc85 99b8
000001a0: 0d93 34b9 1ee3 34b8 e453 0f39 3610 e9b8
000001b0: 8eac c438 775a ceb8 13b3 13b8 48cf d738
000001c0: fefb 5738 8b64 d238 36c8 0f39 cfa1 6d38
000001d0: fedb a1b8 0e9d 26b8 1aab d6b8 c072 0939
000001e0: c9eb ffb8 6abb 05b9 cf9a f538 d8c0 63b7
000001f0: 818b 1eb9 eaa0 da36 8e02 12b9 d218 1fb9
00000200: 55fd 13b9 520a 8fb8 3184 f5b8 7773 2db9
00000210: cf27 a038 e5b5 6937 88cc a837 de7e c2b8
00000220: 24e4 72b6 e5cb eb37 57ee 1739 b2f8 2cb9
00000230: 6b64 85b8 4bc4 23b8 019f d4b8 6154 f638
00000240: 07aa 2139 d4b0 2939 0e20 fa36 8bfb 0438
00000250: a9b9 33b9 73ad b738 60f3 0a39 427b 2739
00000260: f194 38b7 72e1 afb8 f738 1eb9 7fa7 bd37
00000270: 1439 06b8 60c1 b038 1827 19b9 b89d 1538
00000280: 9d3a 14b9 4bdd 8438 8845 6538 0a78 66b8
00000290: 931a a638 c3ba bc38 a675 fc38 8ad0 7b38
000002a0: 7492 3235 5881 1639 9011 8e38 5213 c038
000002b0: cd45 2937 b19f 0539 cd50 a8b8 c0c8 d538
000002c0: eef3 f4b8 f9e5 2f35 a206 7c38 7cad b338
000002d0: 31f6 a7b7 93ad 22b9 b84f 3638 c729 c3b8
000002e0: 6abf 4438 16e1 22b9 1571 65b8 3da1 02b9
000002f0: fc8f 2439 96d2 95b8 4033 a3b8 387d e638
00000300: dcec 12b9 57a2 5438 4477 8738 d66e 3a38
00000310: 07a5 bc38 a9b5 2739 eb02 91b8 c625 d7b8
00000320: 29d0 3837 d90d 1839 0f97 02b8 94e8 7b38
00000330: 4b90 0b39 ba55 2d39 ccb7 7eb7 1026 6538
00000340: d53a 8936 ab2a c633 7035 4938 40f7 20b9
00000350: ec39 8c38 0090 1d39 1a2e deb8 a087 3039
00000360: 37b7 dbb8 eda3 1ab9 c302 e1b8 a181 2f38
00000370: 1658 ffb8 be62 0038 6011 8eb7 c81f 00b9
00000380: fed6 1f39 87cf fc38 4353 2139 7910 d938
00000390: 1285 a4b8 5475 2ab6 0d77 3f37 b90c 15b9
000003a0: e884 2039 131b 2738 653c 4137 3bb9 d837
000003b0: 1fb4 2f36 e0a8 ddb8 bd5a 1db9 7afe cbb8
000003c0: 7584 2738 a002 f3b8 c0e0 b3b8 91f8 2538
000003d0: 8e85 4a38 f497 5038 6351 34b8 9ad6 2339
000003e0: 33fd a2b8 5ed6 3038 c7c7 14b7 f0b3 34b9
000003f0: 49ef 8138 e426 ccb8 b10c 1638 2e8d 14b9
4.7557078e-05 -5.2523348e-05 2.6969661e-05 6.207562e-05 3.897178e-05 1.2017861e-05 0.00014312331 -0.00015975298
-0.00010932088 -0.00012721054 -0.000107797954 0.000111635825 -8.123342e-05 0.00012886788 -9.005802e-07 -0.0001722604
0.000109484296 8.831714e-05 -0.00010693141 -8.191995e-05 -7.518376e-05 0.0001316084 0.00015206926 -1.5453199e-05
2.6614438e-05 -0.00014298505 -0.00015945219 -0.00013133409 4.4956218e-05 4.732385e-05 -9.033339e-05 -4.8138965e-05
-7.598566e-05 -7.993907e-05 -7.9208665e-05 9.489535e-05 -0.0001239772 6.594459e-05 -0.000100754405 1.4828364e-05
3.2015243e-05 0.00013310576 0.000114381444 -3.5891375e-05 -6.856356e-05 3.6425394e-05 2.3637425e-05 -6.8446852e-06
7.455296e-05 -1.5604623e-05 -7.659817e-05 -2.8266912e-05 -0.00014231143 -1.5640186e-05 2.859106e-05 -0.00015158065
-0.00011773969 -9.132012e-05 5.3430926e-05 -0.00013414533 9.081532e-05 -3.2290412e-05 0.00014207039 1.4193691e-06
-9.684102e-06 -4.3563603e-05 -7.1795446e-05 0.0001336703 -0.00013016052 0.00016096569 -5.0289338e-05 0.00014944469
-8.14599e-05 5.8429752e-05 3.2366515e-05 0.00016124456 0.00011516709 6.427728e-05 -0.00015773225 -5.6244124e-05
3.9970833e-05 3.9706632e-05 -0.00016896929 -7.1217844e-05 -0.00015302649 -0.00012432973 0.00012561248 0.0001511733
-8.756839e-05 -5.125666e-05 -0.00010759322 -5.818924e-05 -6.88059e-05 3.2302842e-06 -0.00014943723 7.803275e-05
1.8394383e-05 0.00010737342 -0.00016137712 4.9132934e-05 -8.26282e-05 -1.7161258e-06 1.3534201e-05 -7.3205185e-05
-0.00017220918 -4.3126864e-05 0.00013668794 -0.00011113325 9.378149e-05 -9.839696e-05 -3.5214307e-05 0.00010290608
5.149468e-05 0.00010032308 0.00013712127 5.66559e-05 -7.718055e-05 -3.9723753e-05 -0.00010236185 0.00013108086
-0.00012203266 -0.00012753686 0.00011711346 -1.3575154e-05 -0.00015120023 6.515639e-06 -0.00013924597 -0.00015172668
-0.00014113386 -6.820694e-05 -0.00011707133 -0.0001654158 7.6368095e-05 1.3930233e-05 2.0122403e-05 -9.274272e-05
-3.6193605e-06 2.8109129e-05 0.0001448927 -0.00016495844 -6.3606385e-05 -3.904504e-05 -0.000101385645 0.00011745911
0.00015417497 0.0001618297 7.4543123e-06 3.170552e-05 -0.00017139934 8.7584274e-05 0.0001325137 0.00015972278
-1.1001933e-05 -8.386643e-05 -0.00015089275 2.2608552e-05 -3.2001248e-05 8.428353e-05 -0.0001460578 3.5671255e-05
-0.00014136215 6.3354695e-05 5.466261e-05 -5.494807e-05 7.920447e-05 8.999326e-05 0.0001203821 6.003728e-05
6.6523285e-07 0.00014353299 6.774359e-05 9.158872e-05 1.0089437e-05 0.00012743358 -8.0259146e-05 0.00010194024
-0.00011680262 6.5527234e-07 6.008766e-05 8.567699e-05 -2.0022593e-05 -0.00015514185 4.3466425e-05 -9.306106e-05
4.690831e-05 -0.00015533375 -5.470317e-05 -0.00012457832 0.00015693897 -7.144098e-05 -7.781992e-05 0.000109905784
-0.00014011882 5.069593e-05 6.4595166e-05 4.444908e-05 8.995277e-05 0.00015994035 -6.914682e-05 -0.00010259035
1.1015721e-05 0.00014501008 -3.11351e-05 6.005967e-05 0.00013309826 0.00016530501 -1.5182373e-05 5.4633303e-05
4.089767e-06 9.227855e-08 4.7971902e-05 -0.00015350897 6.686509e-05 0.00015026331 -0.00010594372 0.00016835192
-0.0001047686 -0.00014747652 -0.000107293505 4.1843978e-05 -0.00012175755 3.060954e-05 -1.693581e-05 -0.0001221887
0.00015243512 0.000120549514 0.00015385174 0.000103504346 -7.844916e-05 -2.5400268e-06 1.1412206e-05 -0.00014214487
0.000153083 3.9841118e-05 1.1517758e-05 2.5835461e-05 2.6181876e-06 -0.000105695566 -0.0001500649 -9.727194e-05
3.9939263e-05 -0.00011587632 -8.577248e-05 3.957056e-05 4.8284935e-05 4.9732582e-05 -4.299114e-05 0.00015624837
-7.771924e-05 4.2161315e-05 -8.868002e-06 -0.0001723317 6.19577e-05 -9.734722e-05 3.5774607e-05 -0.00014166973

arith.constant1 f4 [512]
00000000: ba89 27be dda9 e9bd 7182 113e ba9f 33be
00000010: 47dd e43c 9cc6 11be 6f7f a03d 4fcf 273e
00000020: 7ee3 17bd 4c4c 21bd b64c 50bd bd2d 2c3e
00000030: c635 953d cccf d33d f970 993d 6dde 2d3d
00000040: 2444 07be f71d bbbd de7f 1e3e 563b b23d
00000050: de5a c7bd 7ee8 9a3d 073e 0b3d d673 aabd
00000060: d183 19be 1b7e c83d 16fa 12be 9132 123d
00000070: 756a 343e 1d77 98bd b2c4 fd3d 9eea 16be
00000080: cf6c da3c 3e2e 08bd 9920 1e3e d5eb f43d
00000090: d05c 2e3e cb13 f73d cef3 cfbd 5e92 0e3e
000000a0: a79b 133d 9144 e3bd 0939 ce3d 5246 d53d
000000b0: b576 973d 9eab bbbd cfd6 313e 14aa 253e
000000c0: 3b9f 053e cf36 ea3d 755a c73c 89c6 0cbe
000000d0: 4594 573a 0350 0b3d 8c5a c73c 7d37 e73d
000000e0: f418 7bbd ee0f 29be e367 a73d 8ce1 233e
000000f0: 4b58 ed3d ad4d 213e fdd8 8a3d 0612 083d
00000100: f1f7 91bd aa8c f1bc 5d70 f0bc 5643 663c
00000110: 81cb e13b 359b 9cbd ee3f 41bd 91ee e0bd
00000120: 0a22 d5bc 63f3 c83c 6ef0 10be a59d b6bd
00000130: af34 733d 43f9 a73d 9a58 c5bd 78bc 2ebe
00000140: c764 d8bd a153 6d3d e42d 25be 6f2b 30be
00000150: ae73 bb3d 6633 233e e4fc 1fbe 93b4 a53b
00000160: d751 883c 5133 e03d 839e 7f3d a45b c7bd
00000170: 467f 34be fb9e 43bc 79f5 eabd 1383 a53c
00000180: 3524 20be 037b ecbd b901 d7bd f76f 46bd
00000190: f21c ecbc d776 a8bc 283b 1b3d 3bd2 103e
000001a0: 3a5c 343e 9dfd 2e3e 7c87 d13d f937 e93d
000001b0: 05eb 1e3e d3e6 03bc f88c 333d 3a12 d7bd
000001c0: 78a4 9ebd 1383 29be e44b c0bb ca77 283d
000001d0: 0c19 c43d f1e5 ec3c 7028 0fbe 821e 653a
000001e0: 6247 963b c4c2 133d e25d 213d cb45 613d
000001f0: ae3e 72bc a031 01be f1cb e63c 6670 063e
00000200: 0d6f 1a3e 41f2 013e 771f ca3d 54d9 1fbc
00000210: 5a6d edbc 0888 8fbd 06cb a53d 25cc bbbd
00000220: 88b1 3dbd 5260 2dbe 13df 30bd 0ca3 efbd
00000230: 80cb 2b3d 36ab 093e a729 5bbd 5ab8 8cbc
00000240: a924 d63c d35c 94bc 27a0 223e f675 ab3d
00000250: 579d ddbc 89a9 e23d 2d88 84bc 4397 fbbd
00000260: 09a4 d3bd 97ed 993d 8519 d33d 651f efbd
00000270: 78cf 5fbd 12c2 313e 4067 003d f427 673d
00000280: a45f dabc ae15 eb3b 6851 a2bd aa62 f43d
00000290: 2ff0 2fbe 1d5d f93c 0091 1b3e 015c c53d
000002a0: df08 ffbd e335 1dbe 8f8f cb3d 2dd0 083e
000002b0: 24a4 b23d 4a7a 88bd 50ac 9abd e67c 013e
000002c0: 98e2 b7bd 3e7a 523d 3904 2a3e 7285 023d
000002d0: 9e41 083e 26e6 3c3d f58a c83d 6376 063e
000002e0: 6168 aa3c ed14 0b3e 31fa 9a3d 46d4 c6bd
000002f0: fcc8 c6bd 48d1 223e ca30 5f3c 6c26 013e
00000300: 4300 c03d 551c c5bc 812a 89bd 0090 d8bb
00000310: 6c2d 3bbd 103c bd3c f9e9 203e 6783 913d
00000320: 17dc b0bc 97a2 313d a170 31be fdb9 333e
00000330: 5aa6 38bd 20f0 2d3e 76db 9d3c 8a77 b4bd
00000340: c430 94bd ab29 0cbe b970 d13d 8c81 c7bd
00000350: 46dd 2ebe b625 fabc 8ffd 9d3d cfda a83d
00000360: 4f0f 14bc 89ad 033e 6e82 193c a44b d2bd
00000370: 98fb 11be 83b1 8c3d dd04 c1bd 0b1b c0bd
00000380: 458d 30be 0562 14bd bb4b c7bd 206c 82bd
00000390: 574e c93d 305d 413d 501d 3bbd 079d b43d
000003a0: 9d8a af3d 1684 373d 167c db3d d8d4 9f3d
000003b0: 080e b93c 1c48 01be 54dc 85bd 1dce 433d
000003c0: 1d53 e0bd 2159 bb3d 3131 b03c 36fb 263d
000003d0: 7459 45bd 76a9 23be 6574 1e3d 545b fc3d
000003e0: 95f9 033e 3b8d e63c 266f a43d fe20 bf3d
000003f0: f431 063e 3109 463d 7a27 ddbc 98c6 06be
-0.16361132 -0.11409352 0.14209916 -0.175414 0.027937545 -0.1423592 0.07836806 0.16387676
-0.037082188 -0.039379403 -0.050854407 0.16814323 0.07285647 0.103423685 0.07492251 0.04244845
-0.13209587 -0.09136575 0.15478465 0.08702724 -0.097341284 0.075638756 0.0339947 -0.08322875
-0.1499169 0.09789678 -0.14353213 0.035692755 0.17618735 -0.07444594 0.12391032 -0.14737937
0.026663212 -0.033247225 0.15442123 0.11959044 0.17027593 0.12064322 -0.10153924 0.13923022
0.036037114 -0.110970624 0.10069472 0.10413803 0.073956884 -0.09163593 0.17367099 0.16178161
0.13049023 0.11436235 0.024335125 -0.1374761 0.0008223693 0.034011852 0.024335168 0.112898804
-0.061303094 -0.16509983 0.08174112 0.16004008 0.11589106 0.15752287 0.067796685 0.033220313
-0.07127369 -0.02948602 -0.029350454 0.01405414 0.0068907146 -0.07646791 -0.04718011 -0.10983003
-0.026017208 0.024530118 -0.14154217 -0.08916787 0.059376415 0.0820184 -0.0963604 -0.17064083
-0.10566097 0.057941083 -0.16130787 -0.17204069 0.091529235 0.15937576 -0.15623814 0.0050569265
0.016640587 0.10947288 0.062407028 -0.09734276 -0.17626676 -0.011939759 -0.114726014 0.020204103
-0.15638812 -0.115469 -0.104983754 -0.04844662 -0.028822396 -0.02056448 0.037898213 0.14142697
0.17613307 0.17088933 0.1023092 0.11387629 0.1551934 -0.008050638 0.04383561 -0.10501523
-0.07746214 -0.16553907 -0.005868422 0.041129865 0.0957509 0.028918238 -0.1398027 0.0008740203
0.004586146 0.036074415 0.039396174 0.0549982 -0.014785452 -0.12616587 0.028173419 0.13128814
0.15081425 0.12690069 0.09869283 -0.009756405 -0.028982807 -0.07008368 0.08095364 -0.09169797
-0.046311885 -0.16931275 -0.04318149 -0.117010206 0.04194212 0.13444218 -0.05350652 -0.01717775
0.026140528 -0.018110668 0.15881406 0.08372109 -0.027052565 0.110674925 -0.016178215 -0.1228471
-0.103340216 0.0751602 0.10307602 -0.1167591 -0.054641217 0.17359188 0.031348467 0.056434587
-0.026656933 0.0071742153 -0.07925683 0.11932881 -0.17181467 0.030439908 0.15192032 0.09636689
-0.12452864 -0.15352587 0.09939491 0.13360663 0.087227136 -0.0666395 -0.07552397 0.12645301
-0.08978766 0.05138611 0.16603173 0.031865545 0.13306281 0.046117924 0.09792129 0.13131098
0.020801725 0.13582201 0.075672515 -0.09708457 -0.097063035 0.15900147 0.013622472 0.12612313
0.0937505 -0.024061361 -0.0669756 -0.006608963 -0.045697615 0.02309993 0.15714253 0.07105141
-0.021589322 0.04336795 -0.17328121 0.17551418 -0.04508052 0.16986132 0.019269686 -0.08811863
-0.07235864 -0.1368777 0.10226578 -0.09741506 -0.17076597 -0.03053556 0.07714378 0.082448594
-0.009036853 0.12859167 0.009369476 -0.102683336 -0.14256132 0.06869795 -0.09424756 -0.09380158
-0.1724139 -0.03622629 -0.09731241 -0.063682795 0.09829395 0.04720801 -0.04568225 0.08819013
0.0857136 0.0448037 0.10717027 0.078042686 0.022589698 -0.12625164 -0.06536165 0.047803987
-0.109533526 0.09147859 0.021507831 0.040766917 -0.048181012 -0.15982613 0.03868522 0.12322107
0.12888177 0.028143516 0.080290124 0.09332465 0.13104993 0.04834861 -0.026996363 -0.13161695

arith.constant2 f4 [32, 3, 3, 8]
00000000: 9fb4 c33c 6d92 cdbd d073 cebc 4199 a3bc
00000010: 1acc 2bbd 352d e23c 8796 34bc 699a 063d
00000020: f7d0 643d 5ad6 9b3d 553c 9ebd a988 dfbd
00000030: 409d 4e3d 94bf 94bd affc 3f3d 567a c73d
00000040: c7ce 603d f562 9ebd 9f19 243d b745 8a3d
00000050: 3cd9 db3d d1a8 de3d 0eba ea3d c906 babc
00000060: 5e78 d1bd 8e89 aabd ffe6 833d 8ce6 efbd
00000070: 7f66 b33d 27c8 2b3d 2d68 f33b cf9b c53d
00000080: 2679 b4bd 09a1 d03d 6e77 673d 0af7 c5bd
00000090: daeb a1bd 4f2b b63d 33c2 df3d c9fa a0bd
000000a0: 241f 8ebd bddb 973d 2e5b 38bd 4acf bd3d
000000b0: 1e72 723d 1b49 173d a4bd 8dbd 032f 80bd
000000c0: d56e d4bd 3f24 b1bd 5bc6 edbd 96f9 90bd
000000d0: 890f 3cbd 908f 563d 593d 25bd 0894 5e3b
000000e0: 28a7 533d c5c8 ca3d 4d59 203d 4c1e 18bc
000000f0: 8715 c93d 6cd9 21ba 1719 443c cb93 a7bd
00000100: d006 5dbd fd5c 903b d6a9 943d 4240 76bd
00000110: 8605 ccbd 44e8 913d ec7d 61bd 30fa 82bd
00000120: b7f1 fb3a 77cf b6bd b3ae 9fbc 4295 e53d
00000130: 572d b53d 6c13 9ebd fd7a ad3d 6b0a d7bd
00000140: cd06 263d cf20 b8bd 80dd b73d 461b 6d3d
00000150: 0b80 9c3d ad8b 253d 37f2 903c c67a 903c
00000160: 27e0 77bb f062 b33d a2c5 51bd 4db2 163d
00000170: fc81 e3bd 667c 6e3d b235 e9bc 6c20 66bc
00000180: f51a d43d c8de d3bd b4f9 ddbd 3df0 323d
00000190: 9987 c6bd 3688 d63d 96c6 163c 312b a7bd
000001a0: 8903 d23b 326f a2bd 5654 9cbd 0ccb 02bc
000001b0: 40b2 c0bd cea3 293d 6147 7c3d 2e6c e2bd
000001c0: 56b0 a33d 80b6 703d 178b 98bd ca73 7bbd
000001d0: bd56 76bd 8000 f6ba 6048 ef3d b818 b03d
000001e0: fe30 163d 0b79 bd3c 3f61 023d 5e43 95bd
000001f0: d232 b5bd 3483 fc3c 6d95 943d e2a9 91bc
00000200: 42df b63d a95c 1c3d ea7e 84bd 05e4 b03d
00000210: 7b15 9abd 5e07 a9bd dfbe 9dbc 7771 12bd
00000220: 363e e6bd 7b29 d23c d4df c9bd a65a eebc
00000230: b305 1bbd 7194 963a ce5f 29bc dc93 a0bc
00000240: 22c1 7abc c0af dabc c381 963c 51e8 b33d
00000250: cc07 6d3d 7659 82bd a334 7abd 990b 02bc
00000260: d019 243d c7ac c03d 0458 e7bd 1da0 d13d
00000270: f441 883d 57f8 64bd da5a 56bd aff4 88bc
00000280: 5924 c2bd bf29 e63d 6413 c8bd 5734 e2bc
00000290: e00e 94bd c9a8 4b3c ba5e 463d 99e6 2a3b
000002a0: 4e75 9e3c bb04 413c fb4f 6bbd ca0d 9ebd
000002b0: 29a0 69bd 72d2 e23d 736c 64bd 347b 02bd
000002c0: 8228 cfbd 1577 d5bd 5858 413d ea6c 5a3d
000002d0: 93f3 b4bd 66fd 343d 1844 993d 9418 39bc
000002e0: 4dd5 6bbc 9bb0 c43d d7f0 8bbd 5fa5 a63d
000002f0: 63b3 e5bc c9f3 2a3d 9c08 8e3d 1042 96bc
00000300: f219 6a3c 3674 b4bd 5362 db3c 357b 91bd
00000310: f225 ef38 c97c d83d 9a21 1e3d 597f 9b3c
00000320: 29d0 143d a955 b43d f65a d8bd d672 eb3c
00000330: d15a c43d 9a31 e03d 8e9e 95bd 202a 833d
00000340: d5bc 02bd 03d8 12bd 8c2c 9ebd 1840 bd3d
00000350: f170 1b3b c4a9 693d 216b 683d b50a 6f3d
00000360: 6946 a83d be0f e03d 360d efbd 7c7f bb3d
00000370: 4218 f1bd c517 d73d dd53 e83d 1fae 753c
00000380: 03f6 0e3d 6dcd b8bd 46b9 743d 4a35 8abd
00000390: a56f 713d 5929 acbd d7b5 16bd e71e bd3d
000003a0: f72e 913c c3ef babd bbff 28bd 0202 c43d
000003b0: 1a5b 9a3d bd5f 743d 4dfe 19bc 47e8 ebb9
000003c0: da9a f13c b8a6 ecbd f847 c2bd 8dfe d53d
000003d0: 46ec e3bb 16da 113d 3004 d9bd a080 e6bd
000003e0: 59ee d93d a5a5 92bc ffef 5b3d 7310 4ebd
000003f0: 95a9 3e3d 9bce 783d 5c03 d43d 1509 6d3d
0.023889838 -0.10037694 -0.025201708 -0.019970538 -0.041942693 0.027609447 -0.011022217 0.0328621
0.055863347 0.07609244 -0.07726351 -0.10914738 0.050442934 -0.07263103 0.046871837 0.097401306
0.0548847 -0.07733718 0.040063497 0.06751578 0.107347935 0.10872043 0.11461268 -0.022708314
-0.10228036 -0.08327018 0.064405434 -0.11713895 0.08759784 0.041938927 0.00742819 0.09648859
-0.0881217 0.10186965 0.05651038 -0.096662596 -0.07906313 0.08894979 0.109257124 -0.078603335
-0.06939533 0.074149586 -0.04500883 0.09268053 0.059190862 0.036934953 -0.06920937 -0.06258967
-0.10372702 -0.086494915 -0.11610099 -0.07078855 -0.045913253 0.052383006 -0.04034171 0.0033962745
0.051673084 0.09901575 0.039147664 -0.009284567 0.09818559 -0.0006174061 0.0119688725 -0.08182486
-0.053961575 0.0044056163 0.07258956 -0.060119875 -0.09961991 0.07124379 -0.05505173 -0.06395376
0.0019221817 -0.089262895 -0.019492483 0.11210109 0.088465385 -0.07718548 0.08470724 -0.10500034
0.04053383 -0.08990633 0.08977795 0.057887338 0.0764161 0.04041641 0.017693622 0.017636668
-0.0037822814 0.08759105 -0.051213868 0.036791135 -0.11108777 0.058224104 -0.028467987 -0.014045816
0.10356704 -0.103452265 -0.10838643 0.04368614 -0.09693832 0.10475199 0.00920262 -0.08162535
0.006409113 -0.07931365 -0.07633273 -0.00798298 -0.094089985 0.041415982 0.06159151 -0.1105579
0.07992618 0.058767796 -0.07448404 -0.061389722 -0.060141314 -0.001876846 0.11683726 0.08598465
0.036667816 0.023129007 0.031831022 -0.0728824 -0.08847584 0.030824281 0.07255063 -0.017781202
0.08929302 0.038174305 -0.064695194 0.08637241 -0.07523628 -0.08253358 -0.019256053 -0.03575274
-0.112423345 0.025654545 -0.09857145 -0.029095959 -0.037847232 0.0011488331 -0.010337783 -0.019601755
-0.0153048355 -0.026695132 0.018372422 0.08784545 0.057868764 -0.063647196 -0.061085355 -0.007937335
0.04006368 0.09407955 -0.112960845 0.10235617 0.066532046 -0.055900898 -0.052332737 -0.016718237
-0.09479589 0.11238431 -0.097693235 -0.027612848 -0.072294 0.012430378 0.048430182 0.0026077388
0.019343045 0.011780913 -0.057449322 -0.07717474 -0.057037506 0.110752955 -0.055767488 -0.031855777
-0.10115148 -0.10423104 0.04720339 0.053326525 -0.088355206 0.044186972 0.07483691 -0.011297364
-0.014394117 0.09603997 -0.06833046 0.08137011 -0.02803964 0.041736398 0.06935236 -0.018342048
0.014288412 -0.08811228 0.026780283 -0.07103578 0.00011403476 0.10570676 0.038606264 0.018981623
0.03633133 0.08805401 -0.105642244 0.028741281 0.09587634 0.10946961 -0.073056325 0.06404519
-0.031918366 -0.035850536 -0.077233404 0.092407405 0.0023718441 0.057046667 0.05674279 0.05835982
0.08216555 0.109405026 -0.11672442 0.09155175 -0.11772205 0.105025806 0.11344121 0.014995127
0.034902584 -0.09023557 0.059747003 -0.06748445 0.058944363 -0.08406324 -0.03679451 0.0923441
0.01772259 -0.09127762 -0.04125951 0.095706955 0.075369075 0.059661616 -0.009399009 -0.00044995753
0.029492784 -0.115552366 -0.09486383 0.10448942 -0.006955656 0.035608374 -0.10596502 -0.11255002
0.10641164 -0.017901251 0.053695675 -0.050308656 0.046548445 0.06074391 0.10352203 0.05786999

arith.constant3 f4 [32, 3, 3, 8]
00000000: d43d 0ebd c838 013d 9c7e ce3d d998 cabd
00000010: 2341 e33d 8459 93bc bfe3 efbd a42d b6bc
00000020: 37b0 cbbd a2a1 8cbd 24e4 bf3c 8c87 a23c
00000030: e030 803d bc6e d93d 96ba b03c 17ce 78bd
00000040: 273a c73c 62ce 8abd 1e4d b9bd d8d2 bebd
00000050: dad1 22bc 7712 053d b3b3 6dbd 629a 76bd
00000060: 94e0 8c3d 1670 bdbc e0c2 72bd 3cf8 18bd
00000070: cb82 e53d b4b4 373d 89d7 86bd e7e5 ebbd
00000080: 4097 b13d acee 07bc a851 233d 82c4 c83b
00000090: 6f8a debd bce6 61bc 5fec 04bd e5c7 893d
000000a0: 9bd6 d2bb 783d d7bd e15b 203c d490 003c
000000b0: e4f3 8e3d 634c 7cbd 2bc1 513d ad4e 4dbd
000000c0: 5e1f 26bc 0c1f 15bd 047d 68bd 9232 62bb
000000d0: f25f 2ebd ae7d 9ebd 7193 413b b450 03bd
000000e0: 7554 bb3d ceaa d6bd 72b1 83bd 3fad cfbd
000000f0: 558c d4bd 61f4 c33d e5b4 5b3d 0852 5b3d
00000100: 4841 93bd 426a 403d be20 603d d447 74bd
00000110: 67b6 933d 14d4 3bbc 4dca 72bd 30d5 2b3d
00000120: a7d6 65bc 5e44 203d 7cb3 d2bc 982e 97bd
00000130: 1328 26bd 644e 58bd 0eb1 c6bd ebb9 8fbd
00000140: db9d cd3c bd35 d13d 22f7 d63c 9cd4 4dbd
00000150: 2103 12bb e679 da3d d10b 773d 2f1b 22bc
00000160: 9456 ca3d bbbf 35bd 126d d4bc c3dd 2abc
00000170: 6b22 003d 78b5 bcbd c876 92bd c51f 98bd
00000180: 28b6 38bd 7694 51bc 9ff6 a23a 7b36 e23d
00000190: c212 5b3d a961 473c 004a 34bd d7ca 983d
000001a0: 4893 89bd 73cc 9fbd 59d2 32bd b19e dfbd
000001b0: 92eb 33bd 8b73 5d3d 2bef ab3d 35d9 183d
000001c0: 8b70 2fbc dff0 0cbd d274 f83c afd5 6fbd
000001d0: 5dd6 a93d 0d76 bc3d 709b 9c3d 8c41 47bd
000001e0: e0b9 e13d 506f 213d 49a3 f03d 77f5 3c3d
000001f0: adc2 8ebd 3864 e5bc fd57 20bc 787b b83d
00000200: dbd8 983d 2c9e f03d e523 b83d d1a9 953d
00000210: db1e ce3d 7f8c 5a3d 7891 613c 83cc 3ebd
00000220: 0e90 9b38 eb62 c4bd 3494 c7bd be76 e43d
00000230: 50f2 cfbd 8f6e bbbd a4de 3b3d d8e2 9d3b
00000240: fafd aebd 7c01 743d 80ec d5bd 62b5 a4bd
00000250: f67f 9bbd a08c 78bd 7f9d 22bd 39db 843d
00000260: ac4b 0bbd eb54 b9bd 7599 b73d 2e97 383d
00000270: cdc5 d33d 3ea4 bebd f6dc a93b db66 85bd
00000280: f646 b13d 84bc 513d 6b32 3c3c 58d7 f7bc
00000290: 2ddf abbc b3bc c63c 2652 01bd 24ca 413d
000002a0: 4c28 dbbd ffa4 c63d f25b b0bd a699 ef3d
000002b0: cca9 fabc d507 c3bd 0c07 c9bd d497 9339
000002c0: 1b3a d0bd a8bb 9339 7d10 e13d 5ec2 e03d
000002d0: 6a93 993a ac4b d03d a008 b8bd a899 ba3b
000002e0: f8ac 29bd d494 b83d 5122 4bbc 1596 aebc
000002f0: c0e8 70bd fe3c d13d e893 b43c c118 353d
00000300: 27ad b93d b28b 823d 5ea3 9d3d defa b03d
00000310: 2fb2 853d dc98 843d c987 d4bd 4f7e ab3d
00000320: 5d6b 0f3d cb9d a2bd 76cb c9bc e1be 7fbd
00000330: a079 fc3c 96d2 d53d 8b24 afbd 986f e8bc
00000340: efba cdbc 0d39 943d 73bf 913d 3797 9b3d
00000350: 4dce d03d c41f ff3c fb02 033d c7e9 583d
00000360: e9cf 82bd 5130 543c 54b9 4b3d a5ec 0ebc
00000370: 47b9 e6bc 39e2 b93d d3bb 1cbd b7e3 8dbc
00000380: 29be bcbc d3c0 c1bd d5d1 abbb 53e8 3abd
00000390: a034 e23d ee19 24bd 9fc6 443d 7b66 ca3d
000003a0: 98a0 85bb 6705 b3bd 1a17 e03d a4b5 583d
000003b0: 0585 b5bd a504 463c b5eb 95bc 18be 853d
000003c0: 1f79 aebb 60a0 3c3c 3b6a 223d 58f2 56bd
000003d0: eed2 ecbd b4e7 60bd bde4 023c 9b1f c9bb
000003e0: 370f f13d 9172 ae3d a267 b8bd 6240 febb
000003f0: d7c8 4b3c e611 623d 9efd cc3d eb78 e13d
-0.034726933 0.03154829 0.100827426 -0.098924346 0.11096408 -0.01798702 -0.11713361 -0.02223856
-0.0994572 -0.068667665 0.023424216 0.019840024 0.06259322 0.10616824 0.021573346 -0.060743418
0.024319721 -0.06777646 -0.09047912 -0.09317559 -0.009937728 0.032488313 -0.058032703 -0.060205825
0.068787724 -0.023124736 -0.05926788 -0.03734611 0.112065874 0.044850066 -0.06584079 -0.1151846
0.08671427 -0.00829665 0.039872795 0.006126941 -0.10866248 -0.0137879215 -0.032451984 0.0672758
-0.0064342744 -0.10509771 0.009787531 0.00784703 0.06980112 -0.061596286 0.05120961 -0.05012386
-0.010139314 -0.03640656 -0.05675985 -0.0034515006 -0.04257197 -0.07738815 0.0029537345 -0.032059386
0.09146968 -0.10481797 -0.064303294 -0.10140466 -0.10378329 0.09568096 0.05363931 0.053545028
-0.07190186 0.046976335 0.054718725 -0.059638813 0.07212525 -0.011464138 -0.05927496 0.04195136
-0.014028228 0.0391277 -0.02572035 -0.07381934 -0.04056556 -0.052809134 -0.09701739 -0.07017883
0.025099685 0.10215328 0.026240889 -0.05025159 -0.0022279697 0.106677815 0.060314003 -0.009894176
0.09879795 -0.0443723 -0.025930915 -0.010428849 0.031282824 -0.092143 -0.07151562 -0.074279346
-0.045095593 -0.0127917435 0.0012433118 0.110455476 0.053484686 0.01216928 -0.044015884 0.07460564
-0.06717545 -0.078026675 -0.043657634 -0.1091894 -0.04392583 0.05406527 0.08395227 0.03731652
-0.010707985 -0.0344094 0.030329142 -0.058553394 0.0829284 0.09202204 0.07646835 -0.048646495
0.11021781 0.039412796 0.11749894 0.04613253 -0.06970725 -0.02800189 -0.009786603 0.09007925
0.07463237 0.11748919 0.08991221 0.073077805 0.10064479 0.053356644 0.013767593 -0.046581756
7.417808e-05 -0.095891796 -0.097450644 0.11155461 -0.10153639 -0.09151947 0.045866624 0.0048183016
-0.08544536 0.059571728 -0.104454994 -0.080424085 -0.07592766 -0.060680985 -0.03970098 0.06487126
-0.034007713 -0.090494 0.089648165 0.04506605 0.10340462 -0.093086705 0.0051838113 -0.06513759
0.08656113 0.051205173 0.01148663 -0.030254051 -0.020980442 0.0242599 -0.031572483 0.047311917
-0.107010454 0.09699439 -0.08611287 0.11699228 -0.030598544 -0.09522978 -0.09815797 0.00028151146
-0.10167333 0.0002817784 0.10989473 0.109745726 0.0011716906 0.10170683 -0.0898602 0.005694587
-0.04142472 0.09012762 -0.012398318 -0.021311799 -0.058815718 0.102167115 0.022043183 0.04421306
0.09066229 0.06374301 0.076971754 0.08641599 0.065281264 0.06474468 -0.103774615 0.08373701
0.0350145 -0.07940253 -0.02463315 -0.062437896 0.030819714 0.10440557 -0.08551892 -0.028373525
-0.025113551 0.07237444 0.07116594 0.07597201 0.10195599 0.031143077 0.031985264 0.052957322
-0.06387312 0.012950973 0.04973729 -0.008723413 -0.028164519 0.09076352 -0.03826506 -0.017320497
-0.023039894 -0.094606064 -0.00524352 -0.045631718 0.11045194 -0.04006379 0.048040982 0.09882828
-0.004077982 -0.08741265 0.10941906 0.0529076 -0.08863262 0.012086068 -0.01830087 0.06530398
-0.0053244974 0.011512846 0.03965209 -0.05247721 -0.11563669 -0.05490847 0.007989106 -0.006137801
0.1177048 0.085179456 -0.090041414 -0.00775914 0.012438021 0.05519285 0.10009311 0.110093914

arith.constant4 f4 [32, 3, 3, 8]
00000000: 388c 38bc f86b ea3b 0a11 4abd 1e9a 9bbd
00000010: f571 adbd 64c2 f53b 2d28 7a3d 9f88 1f3d
00000020: 16bc aa3c 6cc3 aa3c e530 97bd 6d1d aebd
00000030: 2175 3ebb d965 c5bd 6e8a 0cbd 5b39 813d
00000040: f97a 4ebc 2c89 493d 1823 903d be47 d53d
00000050: 2ee8 dabd b909 c1bd 8023 4fbc 563f ebbd
00000060: dc6d ce3d 976a 4a3c 7066 b83d b2cb 89bd
00000070: 6ad5 1c3d c7ea afbd 04ed 68bc 4aa6 43bd
00000080: bfb7 ee3d 350b dfbd db5d c43b 5344 d3bc
00000090: 3b12 c33d 3557 a53d b822 d8bd 4f88 85bd
000000a0: fc24 e5bd 135a b8bc 8f39 123d d43a 473d
000000b0: a9a4 c03d 5ca1 cbbc c5d7 ae3d 7386 633c
000000c0: fbc7 b5bd 414a 8d3d c743 d93d b468 833d
000000d0: f2a4 e43d 2748 0b3d 4616 8f3c 1be2 29bd
000000e0: fc44 1e3d 232e c93d 3a97 cabd fc2d 5dbd
000000f0: a224 3dbd fe7d 06bd 3aba 05bc 1573 f83c
00000100: 0fcb 0e3c b4f5 c2bb 1fa3 1ebd 0a80 aa3d
00000110: d048 d13d 3a91 b7bc 1cfd aa3b cc27 ecbd
00000120: 607f 27bd 903f 873d b446 ebbb 7295 8dbd
00000130: 7102 a23d 78fe b93d 6f41 d23d d98f 71bd
00000140: 0532 5c3d 35de 74bd 800f 683d 673e e43d
00000150: 17d9 cdbd a9d4 1e3d 3e4b 4c3a 454e e13d
00000160: 4d9e 513c b876 52bd c229 71bd a8e2 66bd
00000170: a6bf 95bd 8a08 d63d e74c e2bd 9609 b43d
00000180: f6f3 503d 73a6 edbd c27d ce3d 0fca d6bc
00000190: ea01 ca3d f8ad 7d3d c85e ce3d 8c2e f13c
000001a0: 1580 473d 7768 c03d c96d 37bb 0743 b13c
000001b0: 16b0 013d 4e03 923c 819b 32bd 33d0 35bd
000001c0: f86e 2f3d bc9c cabd 261a 413d ec4a 803d
000001d0: 815b 063d a491 8cbd cfc3 533d 6c19 d83d
000001e0: b1f1 973c 0a52 f03d 25fd 45bd c7ea 693d
000001f0: af65 3a3d e7ee 68bc 9d29 c73d a0e2 d1bd
00000200: cccd 903d b3f0 453d b446 a5ba 8c26 6fbd
00000210: 2cfa adbd edb8 9fbc c0e6 963d 7e09 9b3d
00000220: 81e4 05bd e335 623d d21e 45bd fd63 a03d
00000230: db26 06bd affa d7bd f39c a9bd 7302 b2bd
00000240: 7343 bbbc 12d7 f03d b00e c93d 965d e3bc
00000250: 6de0 c53d 9b30 93bd 5365 90bd c8aa b53d
00000260: 554b 98bd db4a a03d 01bb a6bd abe8 353d
00000270: 6361 2bbd afa4 7abd 7419 1b3d 4555 99bd
00000280: 86af edbd 81f8 c3ba 5d6b d33d c49a bdbd
00000290: e93e 6fbd 358c d3bd 4000 cbbd 4f00 b03d
000002a0: 6f32 4ebc 3ec7 23bd 693c 6f3d e751 ab3c
000002b0: 7541 edbd 7f15 9fbc e80c afbc 8f76 e93d
000002c0: 77e0 c53d 3a04 bebd 72f8 9c3d d9ef 49bb
000002d0: 1e39 243c a109 8f3d 77f1 9b3d 3181 0b3c
000002e0: 65af 6c3d 13f6 b13c 075c 21bd 723b 003c
000002f0: 749b 70bd 40a1 78bd 4f89 a23d 32b2 563d
00000300: df32 ef3d a090 e6bd 42a9 2cbb 4797 bebd
00000310: 2980 b0bd b156 c23c c532 363d ab88 6839
00000320: 67c4 22bd ab93 1fbd dbad 063d 9aae 15bd
00000330: 22b4 643d a83c e5bd 9b93 763d 1c3f e0bd
00000340: 1ce9 693d 3a4b 5ebd 7900 913c fe40 423d
00000350: 2a32 9d3d 4188 34bd 88af d93d 4530 9b3c
00000360: d053 473d bb84 b53c 77e6 72bd 0372 48bb
00000370: bdcb 213d 7660 1ebd 273a e9bd d8d2 5e3d
00000380: 763a dd3d 5fb5 2dbd 092b 373d ed9c 3b3d
00000390: 9748 83bc cd0c a73d a1a7 53bd 97e3 e83c
000003a0: 16d0 00bd 91f7 5a3d 36f5 183d 6106 b33d
000003b0: dbaf a53c d3ae 7f3d bef2 ecbd 2bb8 c8bd
000003c0: cdec 17bd 0a14 bb3d 9b15 3dbd bbd5 eebd
000003d0: cc67 e23d 0991 a6bc d58c 0abd b756 9b3d
000003e0: 52ea 8b3d 542a 82bc f2da 72bd 1d5e ac3d
000003f0: 7df9 1b3d 5e07 753c 606f c73d 665e d4bd
-0.0112638995 0.007153984 -0.049332656 -0.07597755 -0.08469001 0.00749998 0.06107347 0.03894865
0.02084164 0.020845138 -0.07382373 -0.08501706 -0.0029061513 -0.096385665 -0.034311704 0.06309768
-0.012602561 0.049203083 0.070379436 0.10414074 -0.10688816 -0.094256826 -0.012642741 -0.1148669
0.10079548 0.012354515 0.090039134 -0.06728305 0.038289465 -0.08589702 -0.014216665 -0.047766007
0.116561405 -0.108908094 0.0059926338 -0.025789415 0.095249616 0.08073274 -0.10553497 -0.065201394
-0.11188695 -0.022503888 0.035699423 0.048640087 0.094064064 -0.024857216 0.085372485 0.013887036
-0.08876034 0.068989284 0.106086306 0.06416455 0.11164273 0.034004357 0.017466675 -0.041475397
0.038640007 0.09823253 -0.098921254 -0.053998932 -0.046177514 -0.032835 -0.008162076 0.030328313
0.008715405 -0.0059497003 -0.038729783 0.08325203 0.10218966 -0.022408117 0.0052181613 -0.11531028
-0.04089296 0.066039205 -0.0071800593 -0.0691327 0.07910622 0.09081739 0.10266387 -0.058975074
0.05375864 -0.059782226 0.056655407 0.11144715 -0.10051172 0.038777027 0.00077931944 0.11001257
0.0127940895 -0.05138275 -0.058877714 -0.0563685 -0.07311945 0.104508474 -0.11049824 0.08790891
0.05101391 -0.11604013 0.1008258 -0.026219396 0.09863646 0.061933488 0.10076672 0.02944114
0.048706133 0.09394925 -0.002798902 0.021638406 0.03166207 0.017823841 -0.04360533 -0.044388007
0.042830437 -0.09893176 0.047144078 0.0626429 0.03280211 -0.06863716 0.05170041 0.10551724
0.018547865 0.11734398 -0.04833712 0.057108667 0.04550713 -0.014217115 0.09724734 -0.102483034
0.07070503 0.04832525 -0.0012609572 -0.05838637 -0.08494982 -0.01949736 0.07368231 0.0757017
-0.03268862 0.05522717 -0.048125096 0.07831571 -0.0327519 -0.10545861 -0.08281889 -0.086918734
-0.02285931 0.117597714 0.098172545 -0.027754586 0.096619464 -0.07187005 -0.07050576 0.088704646
-0.074362434 0.078267775 -0.08141137 0.044411343 -0.041840922 -0.06119221 0.03786607 -0.07486967
-0.11605744 -0.0014951379 0.10323212 -0.09258035 -0.058409605 -0.10329477 -0.09912157 0.08593809
-0.0125852665 -0.039984934 0.05840722 0.020913078 -0.115847506 -0.01941943 -0.021368459 0.113995664
0.09661954 -0.0927815 0.07664575 -0.0030813126 0.010023383 0.069842584 0.07614415 0.008514688
0.057784457 0.021723783 -0.039394405 0.007826673 -0.058742 -0.060700655 0.07936346 0.052416034
0.11679625 -0.11258054 -0.0026346003 -0.093061976 -0.086181946 0.023722978 0.04448201 0.00022176157
-0.039738085 -0.038959187 0.032880645 -0.036543466 0.05583585 -0.1119321 0.06019936 -0.10949537
0.057107076 -0.05427096 0.01770042 0.047425263 0.07675584 -0.044075254 0.10629183 0.018943915
0.048663914 0.022158017 -0.05930182 -0.0030585534 0.03950094 -0.03866621 -0.11388045 0.054400295
0.10802166 -0.042409297 0.044718776 0.045803953 -0.016025824 0.081567384 -0.051673535 0.028428836
-0.031448446 0.053458754 0.037343226 0.08741451 0.020225456 0.062422585 -0.11569737 -0.09800752
-0.037091065 0.091346815 -0.046163183 -0.116618596 0.11054954 -0.02033283 -0.033825714 0.07584899
0.068318024 -0.015889324 -0.059290834 0.08416388 0.038079727 0.01495537 0.0973804 -0.103695676

arith.constant5 f4 [32, 3, 3, 8]
00000000: ad3f 293d 4081 a43d dda0 afbd 22d4 8cbd
00000010: d104 a8bd 1b91 7a3d 55c9 1c3d 7c79 df3c
00000020: c6f6 3abd 42e1 9c3d 163d cfbd ef6a edbd
00000030: 2efa cf3d d0c7 72bd dbcb 983d 44ae e9bd
00000040: 9e05 683c 1724 9c3d 2946 de3d 4cb5 d03d
00000050: ca96 9ebd ec12 9f3d ac16 8dbd 261d 19bc
00000060: dcf0 813d 68fd 413d 0454 c3bd 6674 c0bd
00000070: 7a9d 85bd e580 84bd 8eca c4bd 6068 02bd
00000080: 732b c7bc ae16 98bd 37f0 95bd c5a0 893d
00000090: bbf5 0abd 92ad 343c 0627 643d 33be 7e3d
000000a0: 78c1 ba3d 7486 dd3d 8222 963d a74c 49bd
000000b0: 663d 0abc 4b1d 163c 0f1d eebd db42 d6bd
000000c0: 6c56 913d b014 b73c 97b3 74bd 5318 32bd
000000d0: 0786 d53b c499 85bd 74dc 30bd 0902 ab3d
000000e0: 7a0c e23d d835 a73d 817e cfbd c629 843d
000000f0: af0c edbd f44e dd3d 2d03 b8bd 4762 6b3c
00000100: 3136 3bbd aea4 b0bd 77cf 82bd 0051 6b3d
00000110: 7300 c73d 2a3a 10bd 00ec d8bc dbbf bcbd
00000120: 1826 303c 2f2a ca3b a689 1cbd 9d8b a2bc
00000130: ca37 1f3b 3c72 eebd 6e84 c6bd 4ee3 76bc
00000140: a36a 513d 4282 55bd 1a86 8fbd 3871 b0bd
00000150: 6c8c c4bd 44d6 cf3d e73a d93c 425c bcbc
00000160: ce4b 93bd 5510 043d 1b03 e2bc 362e be3c
00000170: a8d7 123d 6e02 65bd c250 8f3c 6d01 e23b
00000180: 38c9 cebd 0781 3cbd 241f 203d 30a6 a63d
00000190: 91cd bdbd 4b54 c1bd 28af 8fbb fa2a 4b3c
000001a0: ba12 00bd f962 ddbd 82da 0bbd 89aa 5a3c
000001b0: 7dc6 e3bd ac8a a2bc 0ccc 23bc 030b 81bc
000001c0: 46cb d6bd 0af6 bebd 8ebe 7c3d d20a eebd
000001d0: 7b65 d8bd 3cf6 793d 5ff5 b8bc e54a db3d
000001e0: d537 973d 7a41 d83d 45af 3abd d97e ea3d
000001f0: 759f bf3d 7141 5abd c652 9b3b 35c7 3ebc
00000200: 9033 91bc 8c29 5a3d 2396 8d3d 0ad1 de3d
00000210: 736f 03bc a358 74bd 6440 a73d 00a8 ea3d
00000220: a268 3bbd 07aa bb3d d7c5 78bc 9645 ccbd
00000230: 93c6 b53d e2a3 1abd 6954 773d a74b 85bc
00000240: a893 003d 4503 d4bc 0f1f be3d 7d02 a53d
00000250: 324f 8ebc 7d47 bb39 884b eabd 3fcb c93d
00000260: 4785 103d 63a2 debd 1a31 22bc a946 e03b
00000270: 3a5b b63d 3ada aabb 9209 87bd bd4c d5bd
00000280: 6a87 58bd 05f2 b83d aaea 8a3c 67ef 48b8
00000290: 87fe ae3b 3df0 e63d 839c dabd 891e c43d
000002a0: 04f3 a03d 4bd2 56bd d50e 613c 5333 e0bd
000002b0: 6c04 d73d b58c c03d af2b 95bd 5890 b2bd
000002c0: cb85 36bd 0d49 99bd 487c 97bc 7729 18bd
000002d0: 3796 203c 81ff dcbc a392 efbd 81a1 003d
000002e0: 7611 c8bd af85 d8bd ad25 703b 69c0 6c3d
000002f0: 3b59 ca3d c89c cabd 65df c03d c33c ccbd
00000300: 6bcc 133d 6909 d9bd c16f b33c 2e26 1abd
00000310: b2c5 c43d d219 dfbd 29d8 6e3c 101d e1bc
00000320: ff58 92bd 551c 903d 0abc 7fbd fe30 873c
00000330: d77a e8bd f994 be3c d0c8 de3d a076 9abd
00000340: f9c2 a23c 8164 833d e162 65bd f2de 93bc
00000350: 78dd 2e3c c2b4 ab3d f1ea 15bd 800f a13d
00000360: f8bf 4a3c 1f46 8abc 1db6 fe3c 9dad cdbd
00000370: ba41 713d ec35 f1bd 64a4 80bd 1264 a3bc
00000380: 5829 dbbc 5a65 d23d 0055 d0bd 5c2b c43c
00000390: 7f70 bc3c 015d 7c3d bd9b 413d ccc8 95bb
000003a0: b87c 903d 113b b1bd 23e7 9abd 67d4 6dbd
000003b0: 1b8f 83bd a0e5 03bd d404 bf3d 589a d13d
000003c0: 21b7 8abd 087e da3d 5c1a 803c eeea aabc
000003d0: b4bf afbd c82f c2bd ce7d afbb 8922 c0bd
000003e0: fa61 c23c cfb7 7c3d 153d 49bd 94ff 243c
000003f0: 1581 8a3d caea 783c 3b56 043d 2c7e 713d
0.04132049 0.08032465 -0.08575604 -0.068763986 -0.08204044 0.06117354 0.038277943 0.027279608
-0.045645498 0.07660152 -0.10119073 -0.115926616 0.1015514 -0.059272587 0.07460757 -0.11410192
0.0141614955 0.07624071 0.10853226 0.1019083 -0.077436045 0.07767281 -0.0688909 -0.009345328
0.063447684 0.047360808 -0.09537509 -0.09397201 -0.06524177 -0.06469897 -0.09608947 -0.03183782
-0.02431271 -0.07426201 -0.07321208 0.067201175 -0.033925753 0.0110277105 0.05570128 0.062193107
0.091189325 0.108166605 0.073308006 -0.049145367 -0.00843749 0.009162257 -0.11626636 -0.104619704
0.07096562 0.022348732 -0.059741583 -0.04348023 0.0065162214 -0.06523469 -0.04317899 0.083499976
0.11037536 0.08164567 -0.101315506 0.0645328 -0.11574685 0.10806075 -0.08984981 0.014366693
-0.045705978 -0.0862516 -0.06387227 0.057450294 0.097168826 -0.03521172 -0.026479721 -0.09216281
0.01075127 0.0061695795 -0.03821721 -0.019841963 0.0024294727 -0.11642882 -0.09693228 -0.015068842
0.051127087 -0.052126177 -0.07008 -0.08615345 -0.09597096 0.1014829 0.026517345 -0.02299321
-0.07192193 0.032242138 -0.027589371 0.023215394 0.035850197 -0.05591052 0.017494563 0.0068971426
-0.10096973 -0.046021488 0.039092198 0.081371665 -0.09267724 -0.09439906 -0.004384894 0.012400383
-0.03126786 -0.10809893 -0.034143932 0.013346323 -0.11121843 -0.019841515 -0.009997379 -0.015752321
-0.1048799 -0.09324272 0.061705165 -0.116231576 -0.10566231 0.061025843 -0.02257794 0.107076444
0.07383696 0.10559364 -0.045577306 0.114499755 0.09356586 -0.053285066 0.004740092 -0.011644174
-0.017724782 0.05326228 0.06913402 0.10879715 -0.008022177 -0.059654843 0.081665784 0.11457825
-0.045754083 0.091632895 -0.015183887 -0.0997421 0.08875766 -0.037753947 0.060383234 -0.016271425
0.031390816 -0.025880465 0.09283268 0.08057115 -0.017371748 0.00035720682 -0.11440188 0.09853219
0.035283353 -0.108708166 -0.009899402 0.006844361 0.08904119 -0.005214003 -0.06593622 -0.10415027
-0.052863516 0.090305366 0.0169576 -4.7906677e-05 0.0053404006 0.112762906 -0.106743835 0.095761366
0.078588516 -0.052446645 0.013736446 -0.10947289 0.1049889 0.09401838 -0.072837226 -0.08718938
-0.04456119 -0.074846365 -0.01849188 -0.03714892 0.009801439 -0.026977303 -0.116978906 0.031404022
-0.097689554 -0.10572373 0.003664355 0.057800684 0.098803006 -0.09893185 0.09417609 -0.09972527
0.03608362 -0.10597498 0.021903874 -0.037634067 0.0960802 -0.10893597 0.014577904 -0.027479678
-0.07145881 0.07036654 -0.062435187 0.016502853 -0.11351555 0.023264395 0.10878146 -0.07542157
0.01986836 0.06415654 -0.0560025 -0.018050645 0.010672919 0.08384086 -0.03660101 0.078642845
0.0123748705 -0.01687914 0.031092698 -0.1004288 0.058900572 -0.11777863 -0.06281355 -0.019945178
-0.026753113 0.102732375 -0.101724625 0.023946457 0.023002861 0.061612133 0.047267664 -0.004571056
0.07055038 -0.08653844 -0.07563617 -0.05806389 -0.064237796 -0.03220141 0.09327093 0.10234517
-0.0677321 0.1066857 0.01563757 -0.020863976 -0.08581486 -0.0948177 -0.0053555733 -0.09381587
0.02372836 0.06169873 -0.049130518 0.0100707 0.06762902 0.015192697 0.0323088 0.058958218

arith.constant6 f4 [32, 3, 3, 8]
00000000: 4ad6 6b3d 8ed5 acbd 99ff efbd 6adf 8b3c
00000010: 899c 763d 5094 aebc c24e d93c 35c0 5ebd
00000020: 73e9 813c 7326 853d becc a2bd f68d e3bd
00000030: 15f2 1f3d 4071 f1bc 408a 06bd 4666 c13d
00000040: 19b1 cdbc 9f7b d7bd 9d91 84bd 851f cd3c
00000050: e660 92bd 6d61 f0bc f4a0 a03d 04b9 92bd
00000060: db72 c6bd 3712 ed3d 1f6e ebbc 6043 cabc
00000070: 3267 43bd 9686 35bc 915d 863c 9bed bebd
00000080: 2a5f a5bd 13e1 3bbd 6662 a0bd ceba 613d
00000090: d4a1 bdbd cfeb 8fbd 1cbc b43d d1cb 903d
000000a0: 4a47 a23d f2c6 83bd b25c 00bd 6c03 a5bd
000000b0: 0f0c d33d c59f 053b 5e1d 4ebd 6360 c13d
000000c0: 7dad e43d 7f45 5d3d 0f98 b23c e3e0 99bd
000000d0: bd93 193d a767 b3bb 1b55 9f3c 6a73 6e3d
000000e0: e990 51bd 82b3 07bb 707b 48bd 56f9 723c
000000f0: dd6d abbd 7687 273c bc74 243d e13a df3c
00000100: d789 db3d 3a06 963c 5a55 eabd ebc2 5d3d
00000110: 826f 953d a6c0 a73d 954e 7a3d 5fea d9bd
00000120: 77e8 383d abe1 973d 358d 6ebb e52b d7bd
00000130: c53f 30bd 3a4d ddbc 337b 793d 8e37 b33d
00000140: dc3e 233c b121 afbd 8d12 46bc 35a6 27bd
00000150: bf8a 13bc 8e60 6a3d 6b90 82bc 796b d9bd
00000160: 5b18 56bd cc13 0c3d f080 9a3d 1c89 bd3d
00000170: be0f 3d3c 6bb9 b53d 1cce 80bd 4315 eb3c
00000180: 4668 e83d 880d babb 4cdc bebd 799e 93bd
00000190: 4d66 973d 009b 2b3d 6876 b63d eb1a 5a3d
000001a0: e7bd e03d 20a4 813d dbf6 aa3d f955 c0bd
000001b0: e674 db3d 0087 f0bd 5ab8 34bc d99a 6f3c
000001c0: 3e6c 2abd 6802 93bd fbd3 8dbd a494 333d
000001d0: 04fe 4a3d 1cd8 d2bc 1c45 22bd f5c0 38bd
000001e0: 0d93 0d3c 32b3 26bd debf 263d c88f 123d
000001f0: 0a3a e4bd 18bf 0cbd ff9d c63c b948 84bd
00000200: 3fb9 efbd d904 453c fcd1 013d b2eb 503c
00000210: 5573 9fbc 0e56 2c3b 20f6 a8bd f9ad ea3d
00000220: 30e0 5bbd b503 903d 9356 90bd da40 e4bd
00000230: cb3d cebd 5277 ad3c 3f68 4a3d 4657 583c
00000240: 9371 4e3d 9cab cd3d 53b6 073d c387 0cbc
00000250: 2da4 2bbd 43ac 05bc 0c48 a3bd ddf6 9a3d
00000260: c5e5 923d 258f c53c 7a52 9fbd 5a80 3dbd
00000270: 4bea 8ebd 0a7e d83d 5bc7 9d3d 28fb d6bd
00000280: ec19 c6bd 7b48 b63c ec85 65bb 8845 9c3d
00000290: 1ec0 c9bc 6f5e 34bc 1153 d6bd 2e5b 7bbd
000002a0: 4fbb 93bd 89cc 373a 9c31 04bd ecc6 4abc
000002b0: 85b1 27bd fbdd efbd 8d1f 073d e9d6 babc
000002c0: 554d aabd bb46 593d 5451 bbbd 299f c83d
000002d0: 5625 153c 66a6 4e3d 8ecb b4bd 0d87 083c
000002e0: 3c67 2d3b 3b8a 24bd a4f4 e2bc f357 23bd
000002f0: fe03 e43d 2e91 103d 2173 e03d 02bc 48bd
00000300: 20ba bc3d aa5e 0abd 8836 df3d 20f5 aa3c
00000310: 99e2 8e3d a9ac eebd 190f bdbb 0d6c 82bd
00000320: d48b 9d3d bd15 ec3c 7aea 3fba 9763 da3c
00000330: bbd6 e3bd ef13 c4bc 39c1 943c 21b8 56bd
00000340: 43b6 6f3d 6977 d23d 89ef babd 71a7 92bd
00000350: 65f4 e73d 5d12 b13d 8f31 e1bd 3e7d 9abd
00000360: fa22 7d3d bfba df3d b248 91bd 88e1 ee3d
00000370: 4d3d c83c 2448 e53c e3f1 adbd 758c 17bc
00000380: 0da2 17bd 3b97 193d 6545 5e3d 679d c6bd
00000390: 6b70 c5bd a22f d03d ce19 87bc 9eac f5bc
000003a0: 11a1 723d 99bf 47bd efa4 d73c 8f40 82bd
000003b0: 4a20 2d3d 93b3 42bd d952 a5bd 9ad9 923d
000003c0: b522 a3bd 6020 603d 687a d63d 5dbc 5b3d
000003d0: dfa0 e33d b94d d73c 2f18 733d b46f 803d
000003e0: f403 583d db24 743c 500b dc3d ac06 623d
000003f0: 94e8 aebd 4675 c6bd 804c 863d 7fdd b1bd
0.05757741 -0.0843917 -0.11718673 0.017074306 0.060207877 -0.021310955 0.026526812 -0.05438252
0.015858388 0.06501474 -0.07949208 -0.11111061 0.039049227 -0.029472947 -0.03284669 0.09443335
-0.02510886 -0.10521626 -0.06473086 0.025039444 -0.07147388 -0.029343331 0.07843199 -0.07164195
-0.09689876 0.1157574 -0.028739033 -0.02469033 -0.047705837 -0.011079451 0.016402038 -0.093226634
-0.08074792 -0.045868944 -0.07831268 0.05510979 -0.09259382 -0.07027399 0.088249415 0.07070125
0.079237536 -0.0643443 -0.0313384 -0.08057293 0.10305034 0.002038942 -0.050320975 0.094422124
0.11165903 0.054021355 0.021801023 -0.07513597 0.03749441 -0.005475003 0.019449761 0.058215536
-0.051163588 -0.002070636 -0.048945844 0.014829954 -0.08370564 0.0102251675 0.04015039 0.027249755
0.1071965 0.018313516 -0.11442061 0.054140966 0.07296659 0.08191042 0.061110098 -0.10640406
0.04514357 0.074160896 -0.0036400084 -0.10506419 -0.043029565 -0.027014364 0.060908508 0.087508306
0.009963717 -0.08551348 -0.012089384 -0.04092999 -0.009005248 0.057220988 -0.015938004 -0.10616202
-0.05226932 0.034198567 0.07544124 0.09254667 0.011539398 0.08873256 -0.06289312 0.028696662
0.113480136 -0.0056778826 -0.09319362 -0.07207961 0.07392559 0.041895866 0.08909303 0.053248327
0.10973721 0.063301325 0.08347865 -0.09391398 0.10715656 -0.11744499 -0.011030281 0.014624321
-0.041607134 -0.07178193 -0.06925198 0.043842927 0.049558654 -0.025737815 -0.03961669 -0.045105893
0.008641017 -0.040698238 0.040710323 0.03578165 -0.111438826 -0.03436193 0.02424526 -0.06459183
-0.11705255 0.012025082 0.031694397 0.012751507 -0.019464174 0.002629641 -0.082500696 0.11458964
-0.0536806 0.07031957 -0.07047763 -0.11145182 -0.1007038 0.02117506 0.049415823 0.013204401
0.05040128 0.100424975 0.033132862 -0.00857729 -0.041904617 -0.008158746 -0.07972726 0.07566617
0.07172731 0.024116108 -0.07779403 -0.046264984 -0.069782816 0.10570915 0.0770404 -0.10497123
-0.09672913 0.022251358 -0.003502245 0.076304495 -0.024627741 -0.011008843 -0.104650624 -0.061366253
-0.07213461 0.0007011374 -0.032273874 -0.012376528 -0.04094078 -0.11712261 0.032989074 -0.022807555
-0.08315531 0.05304597 -0.091463715 0.097959824 0.00910314 0.05045166 -0.088278875 0.00833298
0.0026459238 -0.04017089 -0.027704544 -0.039878797 0.11133574 0.035294704 0.10959459 -0.049007423
0.09215188 -0.033781685 0.10899073 0.020868838 0.06976814 -0.11654026 -0.005769622 -0.06368265
0.07692686 0.02881896 -0.00073210115 0.026658816 -0.11124941 -0.023935286 0.018158542 -0.052421693
0.058523428 0.10276682 -0.09127719 -0.07160843 0.113259114 0.08646081 -0.10995781 -0.07543419
0.061800934 0.10924291 -0.07093944 0.116641104 0.024443293 0.0279885 -0.08493402 -0.009249796
-0.037019778 0.03749774 0.0542654 -0.09697991 -0.09640583 0.10165335 -0.016491797 -0.029989537
0.059235636 -0.048766706 0.026323764 -0.0635997 0.04226712 -0.047534537 -0.080724426 0.071704105
-0.07965604 0.054718375 0.10472566 0.053646434 0.11114668 0.026282178 0.059349235 0.06271306
0.052738145 0.014901365 0.10744345 0.055182144 -0.085404545 -0.09690337 0.0655756 -0.08684825
